old/2024-Spring/bonusMaterial/10_FAIR_AI/trt_and_containerization/saved_models/cifar_net_10_epochs.pth (torch, 250887 bytes, 10 tensors)

conv1.weight f4 [6, 3, 5, 5]
-0.13694757 -0.013557618 0.67992806 0.53786165 -0.15714678 0.16694051 0.83011776 0.6822619
-0.6457318 -0.53587884 0.01172548 0.17070837 -0.9706653 -1.1324383 0.11083169 -0.026220327
-0.4035741 -0.83733517 0.19463295 0.38965523 -0.13293117 -0.15032293 0.09033768 0.3597511
-0.07886388 -0.09146332 -0.15362437 0.53499275 0.40026727 -0.2513893 0.19277695 0.622216
0.7259602 -0.6864287 -0.49410433 -0.08755618 0.12596399 -0.8496751 -0.9425682 0.27753755
-0.17563577 -0.24912591 -0.54417795 0.4716689 0.61374116 -0.27150568 -0.12320294 0.251348
0.45311698 -0.31219646 -0.28788033 -0.54409647 0.06825169 0.39870495 -0.04550979 0.026885945
0.5062191 0.7376372 -0.35096827 -0.21487011 0.033390265 0.12028303 -0.7141712 -0.7631653
0.45339867 -0.016039282 -0.26608238 -0.43637797 0.29533872 0.45027694 -0.020985873 0.050265502
0.27986497 0.45961764 -0.21858275 -0.400004 -0.16058967 0.102492034 0.2681843 -0.073351264
-0.032150116 -0.65071636 -0.80698913 -0.49260557 -0.014277906 0.28133395 -0.24702324 -0.47241238
-0.948138 -0.6052719 0.39367205 1.0578945 1.0126425 0.71444154 0.06953302 -0.11266497
-0.07228101 0.050117504 0.62932396 0.2017429 -0.23374493 -0.04118268 0.30235156 0.3854051
0.24596736 0.106091805 -0.31514388 -0.22733855 -0.25371268 0.27239215 0.17945535 0.037589345
-0.45711616 -0.79034257 -0.45709875 0.11521337 0.75232905 0.90762657 0.5727249 -0.20926628
-0.44831944 -0.23668957 -0.11583919 0.2860342 -0.13919523 -0.1661475 0.02747563 0.32471734
0.39050153 0.1750243 0.10893684 -0.29297847 -0.27926132 0.033430018 0.6090704 0.15519048
-0.24345717 -0.592088 -0.78721005 -0.21001826 0.010689284 0.49020272 0.5409815 0.35038143
0.03956038 -0.2688674 -0.13995302 -0.35478085 -0.0038081028 -0.05120701 0.37288135 0.23161857
0.04629813 0.34522206 0.6397286 0.01479548 -0.10060177 -0.23170775 -0.24272805 0.14866751
-0.35408583 -0.2742964 -0.38550186 -0.4955092 -0.16518 -0.29764447 -0.062089767 -0.18238604
-0.22958338 -0.16214423 -0.43934372 -0.39383483 -0.5817962 -0.4665198 -0.4468236 -0.12168038
-0.08610322 -0.17540112 -0.03273194 0.17085299 -0.082559586 0.023034485 -0.2237376 -0.1763634
-0.08617034 -0.03538947 -0.04528161 0.021191454 -0.033409365 -0.11430052 -0.04120453 0.39285627
0.29028544 0.39860338 0.16356342 -0.40497607 -0.16086712 -0.047462773 -0.088091835 -0.32130602
0.059453025 0.11976621 -0.09382555 -0.23839149 -0.39943695 0.071668535 0.3707364 0.06702198
-0.15760674 -0.5106884 0.3743393 0.49747178 0.27424812 0.11364956 -0.21597776 0.50669575
0.86805713 0.861626 0.7235214 0.5196282 0.03836485 0.22704709 0.46314055 0.24401644
0.13831411 -0.32688707 -0.23282903 -0.16461968 -0.06613717 0.0374692 -0.11601305 0.11341989
0.0965861 0.16338764 -0.12597558 -0.080303796 0.13313325 0.18179978 0.18447697 0.08096272
0.071260296 0.19906427 0.109610304 0.3077511 0.25197244 0.18551955 0.11063808 0.09892581
0.18969077 0.14821352 -0.3699544 -0.24957663 -0.008561081 0.039548483 -0.29107955 -0.24918601
00000000: fc3b 0cbe c520 5ebc c40f 2e3f 4db1 093f
00000010: 16eb 20be 74f2 2a3e 9982 543f b7a8 2e3f
00000020: ae4e 25bf 5b2f 09bf 3a1c 403c 2dce 2e3e
00000030: 857d 78bf bdf3 90bf bafb e23d 03cc d6bc
00000040: 44a1 cebe 995b 56bf dc4d 473e e480 c73e
00000050: 1c1f 08be 41ee 19be f602 b93d 4c31 b83e
00000060: 6383 a1bd 1f51 bbbd b54f 1dbe 49f5 083f
00000070: d5ef cc3e 19b6 80be 5267 453e 8c49 1f3f
00000080: 87d8 393f cbb9 2fbf 3efb fcbe a850 b3bd
00000090: b4fc 003e 4f84 59bf 264c 71bf 6719 8e3e
000000a0: ddd9 33be dd1a 7fbe 3f4f 0bbf 967e f13e
000000b0: 241e 1d3f cb02 8bbe d351 fcbd afb0 803e
000000c0: f3fe e73e 37d8 9fbe 0d65 93be e849 0bbf
000000d0: 8bc7 8b3d 0e23 cc3e 7968 3abd ea3f dc3c
000000e0: 9397 013f cbd5 3c3f 1db2 b3be e906 5cbe
000000f0: 3bc4 083d f356 f63d ecd3 36bf cd5e 43bf
00000100: df23 e83e d064 83bc f33b 88be ef6c dfbe
00000110: a336 973e b38a e63e 91ea abbc 33e3 4d3d
00000120: 764a 8f3e 0153 eb3e 28d4 5fbe 53cd ccbe
00000130: 9e71 24be 58e7 d13d 744f 893e 3039 96bd
00000140: d7af 03bd 5995 26bf d796 4ebf cc36 fcbe
00000150: e1ed 69bc 010b 903e a9f3 7cbe 09e0 f1be
00000160: 2cb9 72bf 19f3 1abf 628f c93e 1669 873f
00000170: 459e 813f a4e5 363f 5467 8e3d e4bc e6bd
00000180: 1108 94bd 0348 4d3d 601b 213f b195 4e3e
00000190: d55a 6fbe 2baf 28bd d3cd 9a3e d153 c53e
000001a0: dede 7b3e a946 d93d 8a5a a1be 70cb 68be
000001b0: a1e6 81be fc76 8b3e 25c3 373e 49f7 193d
000001c0: 210b eabe e453 4abf d908 eabe fdf4 eb3d
000001d0: a398 403f 375a 683f 199e 123f e649 56be
000001e0: 208a e5be c05e 72be 193d edbd 1373 923e
000001f0: 3289 0ebe 9222 2abe 9314 e13c 5a41 a63e
00000200: d1ef c73e 9239 333e 471a df3d 4601 96be
00000210: 57fb 8ebe eaed 083d 0aec 1b3f 41ea 1e3e
00000220: d64c 79be 1493 17bf 9986 49bf 070f 57be
00000230: 1b22 2f3c dafb fa3e c37d 0a3f 3265 b33e
00000240: 110a 223d fda8 89be d84f 0fbe d6a5 b5be
00000250: 5d91 79bb 71be 51bd 4eea be3e 6b2d 6d3e
00000260: 1ca3 3d3d f2c0 b03e 41c5 233f be68 723c
00000270: 4d08 cebd cc44 6dbe b48d 78be 4c3c 183e
00000280: bd4a b5be 9470 8cbe 8060 c5be 62b3 fdbe
00000290: f224 29be db64 98be d751 7ebd 68c3 3abe
000002a0: e817 6bbe 2309 26be a9f1 e0be b8a4 c9be
000002b0: 99f0 14bf afdb eebe 10c6 e4be 9033 f9bd
000002c0: e356 b0bd 5a9c 33be ed11 06bd 16f4 2e3e
000002d0: 0015 a9bd d1b2 bc3c 781b 65be 9b98 34be
000002e0: 137a b0bd 8df4 10bd 3679 39bd b399 ad3c
000002f0: 42d8 08bd 6416 eabd 15c6 28bd 7524 c93e
00000300: 4ba0 943e be15 cc3e 2b7d 273e 0659 cfbe
00000310: 5aba 24be 5368 42bd 7e69 b4bd 3982 a4be
00000320: 0485 733d fd47 f53d 9c27 c0bd e61c 74be
00000330: 0083 ccbe f4c6 923d 29d1 bd3e d242 893d
00000340: a963 21be 7abc 02bf 67a9 bf3e 9fb4 fe3e
00000350: 406a 8c3e 1ac1 e83d 4629 5dbe d0b6 013f
00000360: fe38 5e3f 8693 5c3f b338 393f 5b06 053f
00000370: 7624 1d3d 087f 683e c220 ed3e 72df 793e
00000380: 37a2 0d3e be5d a7be bc6a 6ebe 1092 28be
00000390: ed72 87bd 4e79 193d 4098 edbd b048 e83d
000003a0: efce c53d 174f 273e beff 00be 5176 a4bd
000003b0: 1554 083e b929 3a3e 88e7 3c3e c8cf a53d
000003c0: ebf0 913d 81d7 4b3e 5e7b e03d 8d91 9d3e
000003d0: 8802 813e d6f8 3d3e 3896 e23d 9d99 ca3d
000003e0: 4c3e 423e 49c5 173e aa6a bdbe 0491 7fbe
000003f0: c743 0cbc 97fd 213d 6108 95be 9e2a 7fbe

conv1.bias f4 [6]
-0.490028 -0.34912366 0.25852758 0.10185949 -0.3787957 -0.593465
00000000: f3e4 fabe 56c0 b2be ba5d 843e b59b d03d
00000010: 83f1 c1be 52ed 17bf

conv2.weight f4 [16, 6, 5, 5]
0.19916765 0.23053505 0.24811678 0.24805635 0.31097624 0.040580343 -0.083637394 -0.047664195
0.15976289 0.07103227 0.111255646 -0.066330485 0.04479392 -0.18291035 -0.015877178 -0.10834812
0.05918149 0.1543331 -0.17807558 -0.1871799 -0.08524581 0.23125862 0.15085599 0.14344491
0.077414356 -0.3133434 -0.23873858 -0.3555205 -0.16936754 -0.28772992 0.087338746 0.38669845
0.16260861 0.23704876 0.23781106 0.29203346 0.2796334 -0.009265949 0.18827757 0.26916972
0.35814413 0.22226124 0.33838722 0.31404385 0.08133795 -0.2509803 -0.017467326 -0.2313401
-0.33583483 -0.33364892 -0.16984244 -0.06346948 0.03204162 0.009676967 -0.0016959646 0.075964876
0.22135873 0.10303465 0.21452838 0.15804909 -0.03809213 -0.06300976 -0.04446637 -0.14094052
-0.10175709 0.07150421 0.085521616 0.0812267 0.18580455 -0.043095853 0.004426786 -0.12945475
-0.22729927 -0.22293286 -0.09995511 0.29715556 0.22845714 0.2928932 0.097950526 0.34547356
-0.10398362 -0.041683007 -0.18390112 -0.34771472 -0.25568682 -0.15076004 0.010081459 -0.23872058
-0.2512062 -0.20027119 -0.0129506 0.1428849 0.0068238038 -0.060198456 -0.038931813 -0.26622912
-0.1520256 -0.1750838 -0.10707214 -0.26337174 0.3151488 0.2098472 -0.02605007 0.11144006
-0.25669605 0.24039458 0.21477501 0.10589402 -0.08776163 -0.2831468 0.07505406 0.25507325
0.17651403 -0.27443972 -0.2742238 -0.23334654 -0.16723296 -0.20496772 -0.18524574 -0.2735249
-0.021275574 -0.273063 -0.1872105 -0.099782474 0.01129993 0.07019419 0.03853467 0.05972743
-0.129825 -0.21317817 -0.20774186 -0.25831103 -0.41547355 -0.3572494 -0.46596453 -0.31214195
-0.49025342 -0.5013506 -0.548853 -0.4585394 -0.1903218 -0.07132563 -0.15948015 -0.23715308
0.03285934 0.41161934 0.40505683 0.31815648 0.38579148 0.3219522 -0.30156618 -0.2927331
-0.051701386 -0.09285382 0.114558615 -0.3154002 -0.30967417 -0.12692758 -0.23854388 0.15207946
0.18615016 0.2013442 -0.026163783 0.0018458522 -0.0060226414 0.24833858 0.15430543 -0.071494535
-0.08323697 -0.17394444 0.018564664 -0.024897749 -0.16044277 -0.20085043 -0.5908715 -0.40416646
-0.37587315 -0.31583318 -0.16251676 0.23712534 -0.36515018 -0.26802382 -0.1254561 0.30971128
0.47508022 -0.2238532 -0.3028569 -0.20915994 0.17951521 0.31648332 -0.49276888 -0.086066894
-0.05096551 -0.11883034 0.11785481 -0.35552806 -0.10633053 -0.0041750297 0.1260268 0.13208184
0.25413185 0.07513923 0.13303652 0.25127092 0.0048965937 0.17346922 -0.027883423 -0.20247814
-0.014448349 0.04366895 0.106843285 -0.15796213 -0.10573142 -0.15396103 -0.037639327 0.21464059
0.1203102 0.019880556 -0.24303673 -0.12807132 0.120466724 -0.1265431 -0.21820547 -0.23172991
-0.115736686 0.76025087 0.37835813 0.19546747 0.27404782 0.34838766 0.2332833 -0.21051496
-0.2619197 -0.074188225 -0.08073655 0.14839968 -0.07406649 -0.13789767 0.054937888 0.18694961
-0.0573341 -0.23067817 -0.16457579 0.112967074 0.0673592 0.2062066 0.14342478 0.11276781
0.028243775 0.01748364 -0.20327567 -0.41669255 -0.055726927 0.052809622 -0.054402146 0.06545637
00000000: 9bf2 4b3e 6111 6c3e 5312 7e3e 7c02 7e3e
00000010: 4738 9f3e 9337 263d 154a abbd 883b 43bd
00000020: e298 233e 5e79 913d 00da e33d 47d8 87bd
00000030: d479 373d da4c 3bbe db10 82bc 9ee5 ddbd
00000040: 4a68 723d 7f09 1e3e 7259 36be 16ac 3fbe
00000050: 5b95 aebd 0fcf 6c3e fe79 1a3e 39e3 123e
00000060: 6b8b 9e3d 8c6e a0be e377 74be c806 b6be
00000070: af6e 2dbe 5651 93be a8de b23d 57fd c53e
00000080: df82 263e e9bc 723e be84 733e 6985 953e
00000090: 1c2c 8f3e 35d0 17bc d6cb 403e 9dd0 893e
000000a0: ab5e b73e 7398 633e 1741 ad3e 5bca a03e
000000b0: 8394 a63d 7d80 80be a317 8fbc 6be4 6cbe
000000c0: 8bf2 abbe 08d4 aabe 2deb 2dbe 49fc 81bd
000000d0: 133e 033d 248c 1e3c 214b deba 7993 9b3d
000000e0: ddab 623e d503 d33d 54ad 5b3e 9fd7 213e
000000f0: 7e06 1cbd 430b 81bd 5e22 36bd b652 10be
00000100: 0566 d0bd cd70 923d f525 af3d 2f5a a63d
00000110: 8c43 3e3e 4785 30bd 930e 913b c98f 04be
00000120: 24c1 68be 8348 64be 44b5 ccbd c624 983e
00000130: abf0 693e 19f6 953e 499a c83d e9e1 b03e
00000140: 5df5 d4bd cdbb 2abd 9350 3cbe aa07 b2be
00000150: 62e9 82be d760 1abe b42c 253c 2b73 74be
00000160: 199e 80be e413 4dbe c12e 54bc 6b50 123e
00000170: 379a df3b a892 76bd f776 1fbd 2f4f 88be
00000180: 99ac 1bbe 2b49 33be a348 dbbd a9d8 86be
00000190: 2f5b a13e 2fe2 563e f566 d5bc b03a e43d
000001a0: aa6d 83be ff29 763e fbed 5b3e f7de d83d
000001b0: 5fbc b3bd 9ef8 90be f1b5 993d f698 823e
000001c0: 18c0 343e 5d83 8cbe 1067 8cbe 65f2 6ebe
000001d0: 1e3f 2bbe 0fe3 51be 0fb1 3dbe 750b 8cbe
000001e0: 1d4a aebc eace 8bbe 1cb4 3fbe c15a ccbd
000001f0: 5723 393c f9c1 8f3d 88d6 1d3d c0a4 743d
00000200: d8f0 04be 614b 5abe 48ba 54be 5841 84be
00000210: f3b8 d4be 65e9 b6be e792 eebe 12d1 9fbe
00000220: 7f02 fbbe 8358 00bf a181 0cbf adc5 eabe
00000230: b8e3 42be 2c13 92bd c44e 23be 42d8 72be
00000240: 8497 063d c5bf d23e 9c63 cf3e 68e5 a23e
00000250: 7686 c53e ebd6 a43e e266 9abe 1de1 95be
00000260: d5c4 53bd 252a bebd b59d ea3d 237c a1be
00000270: 9d8d 9ebe 4ef9 01be d944 74be b8ba 1b3e
00000280: 269e 3e3e 2d2d 4e3e 6e55 d6bc 86f0 f13a
00000290: 9459 c5bb 784c 7e3e 3e02 1e3e ba6b 92bd
000002a0: 2578 aabd 7e1e 32be ec14 983c 5df6 cbbc
000002b0: 1c4b 24be bcab 4dbe 5b43 17bf e8ee cebe
000002c0: 7272 c0be e3b4 a1be cb6a 26be fcd0 723e
000002d0: f7f4 babe 6b3a 89be 9077 00be 7a92 9e3e
000002e0: b73d f33e c639 65be 0f10 9bbe 062e 56be
000002f0: d6d2 373e 1a0a a23e 344c fcbe d743 b0bd
00000300: 36c1 50bd 525d f3bd dd5d f13d c607 b6be
00000310: d2c3 d9bd b0ce 88bb 2b0d 013e 7640 073e
00000320: 921d 823e 99e2 993d ba3a 083e 95a6 803e
00000330: 9b73 a03b eaa1 313e c76b e4bc 6e56 4fbe
00000340: c5b8 6cbc 37de 323d a7d0 da3d d3c0 21be
00000350: b789 d8bd f6a7 1dbe b22b 1abd beca 5b3e
00000360: 3265 f63d 8cdc a23c 9fde 78be 2125 03be
00000370: 42b7 f63d 8494 01be 4171 5fbe 9b4a 6dbe
00000380: 5b07 edbd cd9f 423f 28b8 c13e a028 483e
00000390: ff4f 8c3e de5f b23e d1e1 6e3e 3c91 57be
000003a0: 571a 86be ffef 97bd 3459 a5bd 16f6 173e
000003b0: 2cb0 97bd 0c35 0dbe 8d06 613d b86f 3f3e
000003c0: 29d7 6abd e636 6cbe 8e86 28be 485b e73d
000003d0: 9ff3 893d d327 533e f2dd 123e cff2 e63d
000003e0: 7d5f e73c da39 8f3c 7f27 50be ba58 d5be
000003f0: eb41 64bd e74e 583d c9d4 5ebd fd0d 863d

conv2.bias f4 [16]
-0.04456515 -0.13653079 -0.39905927 -1.1596115 2.3208652 0.6971217 0.3158463 -0.802453
-0.5973687 1.6155634 0.06906882 1.6740984 -0.24126 -1.2335362 -0.8749669 -1.230325
00000000: f289 36bd bace 0bbe 7f51 ccbe 266e 94bf
00000010: 0e89 1440 9176 323f 9bb6 a13e 8f6d 4dbf
00000020: 28ed 18bf c8ca ce3f f473 8d3d db48 d63f
00000030: dd0c 77be 84e4 9dbf d5fd 5fbf 4a7b 9dbf

fc1.weight f4 [120, 400]
-0.13516551 -0.030015204 -0.091520675 -0.16332117 -0.22805503 -0.10948264 -0.071678236 -0.037941743
-0.105719514 -0.0011873551 0.031678867 -0.02469702 -0.0003525922 -0.006232323 -0.09085261 -0.107307
-0.023628058 -0.13155523 0.04811778 0.08212225 -0.03195958 -0.09549453 -0.002844776 -0.010270933
0.0213134 0.04751819 0.05039856 -0.11860849 0.10829609 0.0005444906 0.14346445 0.09360387
-0.13508949 0.13036413 0.061948784 0.06342304 0.16629203 0.050304122 0.061490487 0.039827164
0.10548014 0.08677706 0.14360084 0.0002769314 0.009387826 -0.06136802 -0.014883691 0.039887354
-0.13480534 -0.025802113 0.02114418 -0.0542327 -0.08109144 0.09260677 -0.095140345 0.056490712
0.04581098 -0.0006631147 -0.01633982 -0.065308206 -0.01587094 0.075997874 0.14338492 -0.054034457
-0.07235227 0.032581057 0.032289032 -0.0119548 -0.04873337 -0.053764056 0.14302549 -0.019166207
-0.028418114 0.034910202 -0.037370004 -0.08195657 -0.15794414 -0.072547555 -0.07122084 -0.03179058
0.058582447 0.05868513 0.020694412 0.088285774 0.10652155 -0.0152164195 -0.021686861 0.08166974
0.0831441 -0.070998706 0.07821477 -0.057215333 0.014748511 -0.07724032 -0.10772923 -0.044644784
-0.13159871 -0.104787365 -0.08478679 0.02961516 0.15995044 0.19785257 0.1447356 0.024341539
0.11427124 -0.00084498053 0.047279406 0.11238214 0.0023866424 0.044546638 0.0315384 0.049981155
0.023607941 0.044975605 0.18233898 -0.013550014 -0.122352846 0.041759018 0.013420868 0.056593094
-0.0874756 0.036619157 0.00701565 0.061289154 0.017076697 0.14555165 0.14016515 0.12042437
0.081765056 0.29510394 0.08765282 -0.11336755 -0.07725772 -0.04690077 -0.06301005 0.050176837
-0.15600035 -0.14012936 -0.0467972 -0.1208885 0.06487838 0.042997163 0.022980489 0.049289037
0.07400105 0.09412993 0.061876193 0.05242051 0.13662249 0.09952567 -0.095245354 0.10851052
-0.00028733714 0.065208964 -0.0016207901 -0.025427688 -0.002472516 0.21319184 0.07390058 -0.057414535
-0.032606136 0.025757467 -0.0040457086 -0.0006351286 -0.0095608095 -0.048320793 -0.075185016 -0.05617577
0.0141459005 0.041068703 -0.042927783 0.015878916 0.03908603 -0.059093796 -0.03796813 0.07160331
0.037086707 -0.07470219 -0.043526456 -0.20107797 0.087883905 -0.064967774 -0.021217205 0.028669665
-0.13877408 -0.045838807 0.10267376 -0.045617644 0.054370534 0.0024961014 -0.008695914 -0.02176846
-0.03700518 0.036650434 -0.11496465 -0.13608383 0.11734861 -0.025217999 -0.12600288 -0.15710327
0.08252356 0.06650642 0.006072373 -0.04400585 0.042663034 -0.045901645 -0.07560494 -0.017236669
-0.06575673 -0.055848204 -0.0318138 0.036086544 -0.022315415 0.077992424 -0.09576788 0.04131259
-0.023867387 -0.014942372 -0.031014733 -0.08671081 -0.032591347 -0.15314598 -0.100128554 -0.044825338
-0.07101149 0.07204518 0.038672473 0.045310643 0.12904999 0.06971388 0.043997537 -0.054455962
-0.030016473 -0.07777597 -0.0064257574 -0.015170735 -0.025067944 -0.040363573 -0.05053713 -0.053551048
-0.0403506 -0.075280644 -0.090621635 -0.05012632 -0.058702286 -0.052404217 -0.08546896 -0.041081633
-0.09669054 -0.04654219 -0.040247515 -0.10194529 -0.063429065 0.08428632 0.08644631 0.040518183
00000000: d468 0abe 72e2 f5bc 316f bbbd aa3d 27be
00000010: 4287 69be 6f38 e0bd 0acc 92bd cd68 1bbd
00000020: 7983 d8bd 07a1 9bba b3c1 013d 6851 cabc
00000030: 20dc b8b9 8438 ccbb ef10 babd c6c3 dbbd
00000040: a18f c1bc 6ab6 06be 2617 453d b62f a83d
00000050: 0ce8 02bd a392 c3bd 6c6f 3abb 6a47 28bc
00000060: 7099 ae3c 6fa2 423d b86e 4e3d 02e9 f2bd
00000070: 57ca dd3d 25bc 0e3a 58e8 123e 63b3 bf3d
00000080: e654 0abe 2d7e 053e 02be 7d3d f0e3 813d
00000090: 7548 2a3e b20b 4e3d 73dd 7b3d cf21 233d
000000a0: f905 d83d 2cb8 b13d 190c 133e 1a31 9139
000000b0: 65cf 193c 085d 7bbd bada 73bc ec60 233d
000000c0: 690a 0abe f45e d3bc 8f36 ad3c 1c23 5ebd
000000d0: 4513 a6bd 9ea8 bd3d f1d8 c2bd ce62 673d
000000e0: 4ba4 3b3d e0d4 2dba 16db 85bc 4fc0 85bd
000000f0: c603 82bc c6a4 9b3d 7fd3 123e 3c53 5dbd
00000100: 6d2d 94bd b773 053d 8141 043d 11de 43bc
00000110: a49c 47bd b337 5cbd 4675 123e 7302 9dbc
00000120: 1bcd e8bc 00fe 0e3d 4a11 19bd d9d8 a7bd
00000130: 1cbc 21be d093 94bd 3bdc 91bd d736 02bd
00000140: 26f4 6f3d d25f 703d 5487 a93c 2ccf b43d
00000150: f827 da3d 4a4e 79bc a5a8 b1bc 7742 a73d
00000160: 7447 aa3d c567 91bd 112f a03d a05a 6abd
00000170: bda3 713c 2c30 9ebd 24a1 dcbd 73dd 36bd
00000180: d0c1 06be c29a d6bd b2a4 adbd 7e9b f23c
00000190: 0cca 233e dd99 4a3e 9235 143e e867 c73c
000001a0: 0a07 ea3d af81 5dba 0da8 413d 9b28 e63d
000001b0: 3769 1c3b 8976 363d 692e 013d 0ab9 4c3d
000001c0: 7165 c13c 5738 383d 12b7 3a3e e100 5ebc
000001d0: 2194 fabd 810b 2b3d 33e3 5b3c 29ce 673d
000001e0: 6826 b3bd f8fd 153d 8ae3 e53b 560a 7b3d
000001f0: 6ee4 8b3c 7e0b 153e 7487 0f3e 0da1 f63d
00000200: 7074 a73d dd17 973e 5283 b33d 3f2d e8bd
00000210: 4c39 9ebd 061b 40bd 6a0b 81bd 3a86 4d3d
00000220: 8ebe 1fbe 127e 0fbe 6cae 3fbd 6494 f7bd
00000230: f5de 843d cb1d 303d 9441 bc3c 4de3 493d
00000240: dd8d 973d 31c7 c03d e471 7d3d e4b6 563d
00000250: c4e6 0b3e 1dd4 cb3d ff0f c3bd c33a de3d
00000260: bda5 96b9 478c 853d b170 d4ba ba4d d0bc
00000270: ef09 22bb f64e 5a3e 3059 973d 812b 6bbd
00000280: 038e 05bd 5301 d33c dd91 84bb c27e 26ba
00000290: f1a4 1cbc 06ec 45bd 9afa 99bd 9018 66bd
000002a0: 35c4 673c a837 283d 0bd5 2fbd 8014 823c
000002b0: ac18 203d 560c 72bd 7884 1bbd c2a4 923d
000002c0: 3be8 173d 76fd 98bd cc48 32bd 62e7 4dbe
000002d0: 7afc b33d d30d 85bd b4cf adbc a5dc ea3c
000002e0: cb1a 0ebe 79c1 3bbd 9f46 d23d 91d9 3abd
000002f0: a3b3 5e3d a295 233b 4f79 0ebc c553 b2bc
00000300: be92 17bd c41e 163d 9672 ebbd 8f59 0bbe
00000310: 7854 f03d fa95 cebc e606 01be aedf 20be
00000320: 1d02 a93d 8534 883d c2fa c63b 7a3f 34bd
00000330: 6fbf 2e3d 5d03 3cbd c3d6 9abd ea33 8dbc
00000340: 77ab 86bd 16c1 64bd 304f 02bd 7ccf 133d
00000350: d1ce b6bc 7eba 9f3d f321 c4bd 6437 293d
00000360: 8a85 c3bc dad0 74bc 9c12 febc 7095 b1bd
00000370: 817e 05bd 4dd2 1cbe 3310 cdbd c69a 37bd
00000380: 796e 91bd 6c8c 933d 0767 1e3d a797 393d
00000390: ae25 043e 27c6 8e3d c336 343d 370d 5fbd
000003a0: 1be5 f5bc 0249 9fbd 298f d2bb ad8e 78bc
000003b0: 4a5b cdbc 4654 25bd 0600 4fbd 5858 5bbd
000003c0: ac46 25bd bd2c 9abd d697 b9bd 4251 4dbd
000003d0: cf71 70bd cea5 56bd 5a0a afbd 3745 28bd
000003e0: b105 c6bd 06a3 3ebd 94da 24bd b1c8 d0bd
000003f0: 19e7 81bd 4e9e ac3d c30a b13d 65f6 253d

fc1.bias f4 [120]
0.11177592 -0.0795282 0.26458198 0.07068305 -0.037685007 0.078896545 -0.046587862 -0.16716117
0.11447886 0.07842765 -0.07924451 0.109427325 -0.02661597 -0.19333696 0.14309035 0.025086643
-0.12061914 0.10653139 0.34416986 -0.07069246 0.2234362 -0.19306679 -0.26416367 -0.20470333
-0.010944089 -0.18947 0.055426314 0.018035889 -0.020037362 -0.27796492 0.3191265 0.24035278
-0.10017452 0.21617784 -0.0062591736 -0.08550612 -0.025905022 0.07302269 0.19333339 -0.047968417
0.08555162 -0.02419337 -0.035484653 -0.049101874 0.3105348 0.39074135 0.0075230664 0.2426282
0.071296826 0.05559608 0.14629616 0.040215246 -0.13808267 -0.20370889 0.18437685 0.1123806
0.030354856 0.21285367 -0.13433398 -0.09189082 0.0040496495 0.081565164 0.09403113 0.025048237
0.0008640617 -0.12233759 -0.22020477 -0.069671705 -0.068044245 -0.14038758 0.033101283 -0.01495671
0.0764705 0.119890265 0.05689911 0.1511692 -0.0008745915 0.11203994 0.45835614 0.005523175
0.07464897 -0.017348439 -0.22977106 -0.0873099 0.1901902 -0.018892016 0.10464357 0.020599442
-0.11280242 0.10677964 -0.22747539 -0.0059609655 -0.05036222 -0.06881939 -0.27697515 0.11089248
-0.02007147 -0.034822162 0.4059696 0.3772181 -0.030911839 -0.14038695 0.16224052 0.37201923
-0.3064916 -0.079875074 0.33889017 0.29240525 -0.058153912 -0.008618366 -0.023258975 -0.30377725
0.016199665 0.10042115 0.028209569 0.062291138 0.19096085 0.22592823 -0.079771265 0.14642347
00000000: c6ea e43d aedf a2bd 4a77 873e 46c2 903d
00000010: 985b 1abd 8394 a13d ead2 3ebd 4c2c 2bbe
00000020: e473 ea3d ad9e a03d f24a a2bd 6f1b e03d
00000030: bc09 dabc 20fa 45be 4786 123e 8182 cd3c
00000040: 2b07 f7bd 212d da3d 0837 b03e 35c7 90bd
00000050: 76cc 643e 4db3 45be 7640 87be c09d 51be
00000060: d64e 33bc 6c04 42be b406 633d 00c0 933c
00000070: 6525 a4bc 6b51 8ebe 8c64 a33e 0a1f 763e
00000080: 4c28 cdbd b95d 5d3e c119 cdbb d51d afbd
00000090: c536 d4bc ec8c 953d 30f9 453e 887a 44bd
000000a0: b035 af3d 2d31 c6bc 5b58 11bd 0c1f 49bd
000000b0: 6bfe 9e3e 400f c83e 0e84 f63b 8773 783e
000000c0: 1204 923d b7b8 633d a9ce 153e beb8 243d
000000d0: 8b65 0dbe 1099 50be 49cd 3c3e cd27 e63d
000000e0: bfaa f83c 50f6 593e d98e 09be 4131 bcbd
000000f0: ecb2 843b a30b a73d 6593 c03d f631 cd3c
00000100: 3382 623a 218c fabd 5c7d 61be 0ab0 8ebd
00000110: c85a 8bbd c3c1 0fbe 3695 073d fd0c 75bc
00000120: 919c 9c3d 0789 f53d 0b0f 693d 19cc 1a3e
00000130: d844 65ba 3275 e53d a8ad ea3e c0fb b43b
00000140: 8fe1 983d 501e 8ebc 1b49 6bbe 88cf b2bd
00000150: 38c1 423e 6ec3 9abc 5e4f d63d 29c0 a83c
00000160: f504 e7bd 49af da3d 4fef 68be 3454 c3bb
00000170: 9d48 4ebd 2ef1 8cbd b0cf 8dbe 991b e33d
00000180: ec6c a4bc afa1 0ebd 3fdb cf3e bb22 c13e
00000190: d33a fdbc 99c1 0fbe 6122 263e 4e79 be3e
000001a0: 78ec 9cbe 8b95 a3bd 0383 ad3e 24b6 953e
000001b0: cc32 6ebd 0c34 0dbc 9b89 bebc b188 9bbe
000001c0: 29b5 843c 9ba9 cd3d c117 e73c fe24 7f3d
000001d0: 3e8b 433e bb59 673e 1e5f a3bd 09f0 153e

fc2.weight f4 [84, 120]
-0.1071019 0.008759436 -0.13524483 -0.067679964 -0.16200322 0.082028724 -0.100312985 -0.105826475
0.09218452 -0.053543206 -0.15195632 0.14207944 0.012902431 0.037783172 -0.045448743 -0.030544974
0.13636886 0.04724326 0.02946284 0.22465 -0.12318275 0.0048227743 -0.08183122 -0.17034552
-0.0022084217 -0.16257422 0.08793726 -0.13937482 -0.033064976 -0.17083836 -0.09522437 0.039554432
-0.004772094 -0.021029495 -0.113167256 0.06599498 -0.058047086 0.13357438 -0.030325951 -0.024708655
0.26221374 0.15756519 0.08070142 -0.034219984 0.03288673 -0.09591242 -0.0033666627 -0.03178687
-0.11679349 -0.061274577 -0.03617623 0.2551643 -0.010221464 0.02676089 -0.15713331 0.05723565
-0.024683753 0.11802146 0.016775236 0.06413979 -0.12266478 0.04780598 -0.012906268 0.063708454
0.1643897 -0.30704215 -0.07730591 -0.14564589 0.22613892 0.07965893 0.014525017 -0.10409167
0.048074823 0.054190513 -0.11006908 -0.045481306 0.028148998 -0.11248854 -0.0059473705 -0.07591539
-0.18395163 -0.050471272 -0.15102042 3.2183943e-05 -0.13109517 0.100773126 -0.13523841 -0.0068941345
-0.04304286 0.15092693 -0.074544795 0.14251876 -0.11027139 -0.2201865 0.150872 -0.007204757
-0.07257218 0.02825586 0.17857333 -0.12477228 0.062796615 0.05367006 0.0101566 -0.15502822
-0.07481995 -0.21058954 0.16626203 0.04058054 0.08778476 -0.13978149 0.10622855 -0.02434202
-0.032542802 -0.1953188 -0.03866359 -0.052065674 0.12699859 0.09731929 -0.07143745 0.12046015
-0.036032997 -0.013329256 -0.07342181 -0.023975668 -0.05477702 0.10823926 0.03150186 -0.057222404
-0.095001705 -0.09040421 -0.0800214 0.23910218 -0.1472567 0.022156555 -0.0033573343 -0.05877953
0.06487276 -0.07958139 -0.015001633 -0.07943799 -0.049713243 -0.14131159 0.054214004 -0.065727554
0.025462195 -0.017176807 0.044818886 -0.21123837 0.01821631 -0.008073173 0.105936415 -0.09666106
0.031288486 -0.09456493 -0.082977965 0.035002016 -0.07518207 0.10072798 0.012227431 -0.04106085
0.021481792 -0.014345246 -0.11802013 -0.044204723 -0.025538953 -0.09827707 -0.15504903 0.004388656
-0.09522583 0.111031294 0.030100312 0.012470957 -0.07572928 0.008580711 0.10777165 -0.03173582
-0.12696427 -0.05802438 0.044510387 -0.008514589 -0.027818546 -0.027029492 -0.048542093 0.04192638
-0.058475744 -0.025541442 -0.028692843 -0.05176741 -0.064746134 0.06117579 0.15234762 0.019903423
-0.04539515 -0.13314424 0.11835668 0.01052667 -0.028532993 0.10381495 -0.08733644 0.03175179
-0.1428906 -0.1510428 -0.027788404 0.055349343 0.07408679 0.2367987 -0.026658967 0.12643638
0.15429693 -0.10585857 -0.010334673 -0.09889589 0.14153472 0.117295384 -0.14840457 -0.10923111
0.118215024 -0.017325254 -0.03038838 0.013459586 -0.011496055 -0.14302261 0.082276076 0.057580333
-0.0153041985 -0.12067926 -0.029180676 0.0074813706 -0.009482767 -0.07889455 -0.046021152 0.06437815
-0.10138134 -0.031118477 0.13820018 0.020354904 -0.041761614 0.06807103 0.0024359832 0.10482607
-0.049222574 -0.1776331 0.012492274 -0.13738306 -0.0038127655 0.013353278 0.008121364 -0.09416888
0.010041627 0.023144769 0.1082791 -0.018100753 0.0146764945 -0.020101624 -0.0751601 0.17371859
00000000: 3e58 dbbd bd83 0f3c 9f7d 0abe cb9b 8abd
00000010: 2ce4 25be adfe a73d e570 cdbd 8dbb d8bd
00000020: 3dcb bc3d 1f50 5bbd 709a 1bbe 467d 113e
00000030: b864 533c 87c2 1a3d 7628 3abd 7439 fabc
00000040: 47a4 0b3e 2682 413d 0e5c f13c a60a 663e
00000050: 3d47 fcbd 5d08 9e3b 2097 a7bd 0e6f 2ebe
00000060: 2bbb 10bb db79 26be 7318 b43d 46b8 0ebe
00000070: 246f 07bd 40f0 2ebe ff04 c3bd d403 223d
00000080: 3a5f 9cbb 0c46 acbc 3cc4 e7bd 6028 873d
00000090: c8c2 6dbd b9c7 083e 216e f8bc ce69 cabc
000000a0: e140 863e c558 213e c946 a53d 412a 0cbd
000000b0: 3cb4 063d bb6d c4bd 3aa3 5cbb f332 02bd
000000c0: 6d31 efbd 0dfb 7abd 872d 14bd e5a4 823e
000000d0: ed77 27bc a739 db3c 8ee7 20be ee6f 6a3d
000000e0: 9535 cabc 3cb5 f13d 386c 893c b95b 833d
000000f0: ac37 fbbd 34d0 433d d074 53bc 9479 823d
00000100: c655 283e a134 9dbe 9052 9ebd 3224 15be
00000110: f690 673e 3924 a33d 56fa 6d3c 032e d5bd
00000120: 1bea 443d dff6 5d3d e66b e1bd 9b4a 3abd
00000130: ba98 e63c 6460 e6bd 29e2 c2bb 8779 9bbd
00000140: d15d 3cbe f7ba 4ebd 19a5 1abe 3ffd 0638
00000150: d03d 06be 2462 ce3d f07b 0abe 31e8 e1bb
00000160: b64d 30bd 978c 1a3e f1aa 98bd 70f0 113e
00000170: f7d5 e1bd 9278 61be 317e 1a3e e215 ecbb
00000180: b9a0 94bd d578 e73c eddb 363e 9c88 ffbd
00000190: 839b 803d 23d5 5b3d de67 263c b8bf 1ebe
000001a0: 343b 99bd c9a4 57be 9840 2a3e c837 263d
000001b0: 7fc8 b33d e122 0fbe 5b8e d93d ea68 c7bc
000001c0: 9a4b 05bd a701 48be b65d 1ebd d142 55bd
000001d0: eb0b 023e 564f c73d cc4d 92bd d0b3 f63d
000001e0: 5697 13bd f462 5abc 2d5e 96bd 9f68 c4bc
000001f0: de5d 60bd 8cac dd3d 1808 013d 0a62 6abd
00000200: 4190 c2bd d825 b9bd 42e2 a3bd 34d7 743e
00000210: 76ca 16be aa81 b53c b906 5cbb cec2 70bd
00000220: 02dc 843d 91fb a2bd 69c9 75bc 63b0 a2bd
00000230: 1da0 4bbd fcb3 10be 810f 5e3d 2b9c 86bd
00000240: 1896 d03c 60b6 8cbc 0294 373d df4e 58be
00000250: 5f3a 953c 5845 04bc 31f5 d83d 3cf6 c5bd
00000260: 5b28 003d 42ab c1bd 5af0 a9bd 465e 0f3d
00000270: 0ff9 99bd 794a ce3d 9055 483c 6c2f 28bd
00000280: 95fa af3c 5308 6bbc 8ab4 f1bd 0310 35bd
00000290: 1137 d1bc 7d45 c9bd 2cc5 1ebe b7ce 8f3b
000002a0: c305 c3bd 6064 e33d ee94 f63c fc52 4c3c
000002b0: f417 9bbd 1c96 0c3c 62b7 dc3d 6bfd 01bd
000002c0: ec02 02be f9aa 6dbd 8650 363d c680 0bbc
000002d0: b8e3 e3bc f46c ddbc 13d4 46bd ffba 2b3d
000002e0: 4384 6fbd 493c d1bc 410d ebbc 100a 54bd
000002f0: 9f99 84bd 7793 7a3d 0401 1c3e 810c a33c
00000300: 44f0 39bd f756 08be fd64 f23d 0e78 2c3c
00000310: 06be e9bc ef9c d43d 73dd b2bd 2a0e 023d
00000320: ea51 12be f7aa 1abe 82a4 e3bc feb5 623d
00000330: d1ba 973d 5c7b 723e e863 dabc 8a78 013e
00000340: 0400 1e3e 61cc d8bd c352 29bc ee89 cabd
00000350: 7aee 103e 9038 f03d 5ef7 17be 8fb4 dfbd
00000360: b81a f23d b1ed 8dbc 0df1 f8bc 9885 5c3c
00000370: f359 3cbc 8574 12be 5c80 a83d 5bd9 6b3d
00000380: 76be 7abc b026 f7bd 500c efbc 4926 f53b
00000390: 9c5d 1bbc 7793 a1bd ad80 3cbd b1d8 833d
000003a0: 05a1 cfbd 2dec febc 5984 0d3e 54bf a63c
000003b0: 3a0e 2bbd d368 8b3d 04a5 1f3b 0daf d63d
000003c0: 9c9d 49bd 74e5 35be 65ac 4c3c 25ae 0cbe
000003d0: 97df 79bb b5c7 5a3c 780f 053c 9ddb c0bd
000003e0: a385 243c 199a bd3c 6fc1 dd3d 0848 94bc
000003f0: ae75 703c 29ac a4bc 8aed 99bd 49e3 313e

fc2.bias f4 [84]
0.26945817 -0.029170241 -0.13777064 -0.08282568 0.43195906 0.087258466 0.50500584 0.27848375
0.24535234 -0.036143914 0.046836108 0.40637836 0.16287874 0.0031470568 -0.030815847 0.54063797
0.10206794 -0.08687878 0.32656053 0.40549418 0.06801079 -0.04543019 -0.0018975891 0.51015913
-0.1419399 0.1307141 0.020388762 -0.11435499 -0.12450304 0.3375573 1.1667988 0.3278343
0.6351769 0.5188216 0.017475365 -0.065461464 0.18325898 -0.121324085 -0.14428088 0.11728823
-0.20745064 -0.05847998 0.16138181 0.27446666 0.04848032 0.0138961375 0.11275278 0.24370167
0.042706817 -0.12163749 -0.10821203 0.15127681 -0.15984894 0.5954034 0.6786863 -0.0019019695
0.14608483 0.204836 -0.09595105 -0.10313846 -0.062172223 0.20541216 -0.03365178 -0.045204867
0.13894127 0.042523645 0.2022271 0.15928622 0.2951628 0.028540295 0.037873194 0.07472102
0.13946962 -0.053923775 0.19624904 0.2768818 0.39425984 0.2524715 0.15527861 0.93311995
0.74600655 0.50561506 0.098541565 0.22373842
00000000: 6cf6 893e 6ef6 eebc bf13 0dbe 83a0 a9bd
00000010: bd29 dd3e 91b4 b23d 1048 013f 6c95 8e3e
00000020: a53d 7b3e a40b 14bd 38d7 3f3d d310 d03e
00000030: afc9 263e da3e 4e3b 8471 fcbc 4067 0a3f
00000040: ff08 d13d 80ed b1bd f132 a73e ef9c cf3e
00000050: 3e49 8b3d 0215 3abd 86b8 f8ba ca99 023f
00000060: b158 11be ebd9 053e 5506 a73c f332 eabd
00000070: 73fb febd 4fd4 ac3e aa59 953f e6d9 a73e
00000080: f49a 223f 7ed1 043f 7f28 8f3c a910 86bd
00000090: 3ea8 3b3e c378 f8bd 5ebe 13be d034 f03d
000000a0: f16d 54be b488 6fbd 4641 253e e586 8c3e
000000b0: 4d93 463d a0ac 633c eeea e63d ee8c 793e
000000c0: 58ed 2e3d 141d f9bd 459e ddbd 4fe8 1a3e
000000d0: 71af 23be 5b6c 183f 63be 2d3f 824b f9ba
000000e0: 4397 153e 87c0 513e fc81 c4bd 423a d3bd
000000f0: 4da8 7ebd 9157 523e 73d6 09bd bd28 39bd
00000100: 9f46 0e3e 462d 2e3d 9f14 4f3e ed1b 233e
00000110: 941f 973e 56cd e93c ec20 1b3d 5607 993d
00000120: 20d1 0e3e 2ddf 5cbd 82f5 483e 74c3 8d3e
00000130: 6ddc c93e f243 813e 5b01 1f3e f3e0 6e3f
00000140: 49fa 3e3f fd6f 013f 29d0 c93d af1b 653e

fc3.weight f4 [10, 84]
-0.072772354 0.09100168 0.19575723 0.18278481 -0.08360116 0.021055786 -0.24429116 0.004066199
-0.06991984 0.039895885 -0.03948344 0.095830485 -0.039885614 -0.124250405 -0.11853957 0.21317744
0.28616306 -0.08876516 -0.050797287 0.004225107 -0.21641012 -0.07995659 -0.23111328 0.18240699
0.18737663 -0.13656776 -0.022265827 0.038600087 0.16411011 0.11145904 -0.34467015 0.08088781
-0.2797443 0.1802283 -0.013073003 -0.09188571 -0.17436767 0.14608726 0.12601358 0.07694711
0.09071037 0.043865923 -0.12721755 0.058796722 0.070239656 0.07996351 0.0574388 -0.15685578
0.022055652 0.21941176 0.082271725 0.025056202 0.24579456 -0.22429408 -0.12917945 0.17026448
0.19337983 0.13504164 -0.034809113 0.062054284 -0.20540701 0.26583028 -0.02538649 0.005648103
-0.09171421 -0.1068427 0.15105268 0.14451396 -0.13236849 0.19817919 0.14981696 -0.20514917
0.11586262 0.14378452 0.2413684 0.024838533 -0.11238294 -0.152767 0.024501555 -0.16554171
0.18093456 0.24324797 0.010809986 0.17870216 -0.17827687 -0.22416316 0.21844527 0.038380772
-0.15510853 0.0740566 -0.29671377 0.1565888 -0.1617771 0.05261408 -0.17520851 -0.060952708
0.01809362 0.26789108 -0.004711736 -0.27184522 0.116076544 -0.057160392 -0.06447131 -0.030870186
0.010505626 0.009314012 0.1895969 -0.09466174 0.3252349 0.16372453 0.07238142 0.27417442
0.20174533 -0.0077341665 -0.4913074 0.18603304 -0.06011211 -0.38999325 0.12167083 0.032735646
0.18506086 0.19473936 0.16925116 0.21231274 0.060253736 0.096324064 0.13548483 0.15797362
-0.088375725 -0.07151808 -0.118388586 -0.07074616 -0.057830144 0.28662652 0.02499478 0.122576535
-0.067287415 -0.16400737 -0.032341737 0.1512503 -0.18185243 0.0885719 -0.06568096 -0.004452112
0.20215593 -0.076991975 0.08204739 0.202014 0.17680775 0.05784155 0.22541767 -0.24942529
-0.020741401 0.18563497 -0.12324963 0.03559005 -0.17547004 -0.004993073 0.0063886424 -0.008439961
0.16962469 -0.3005767 -0.09463842 0.09596306 -0.29373452 -0.048260447 0.4205601 0.118474826
0.06907401 -0.03769004 0.06808253 0.17871939 -0.10609137 -0.024989605 0.20271671 -0.18554914
0.20756201 0.1440293 0.16892046 0.108089715 -0.24569428 0.050161164 0.2456562 0.20734847
-0.16591808 0.063503705 -0.19382417 0.114956975 0.04601631 0.039011225 0.05439684 0.020577705
0.08533578 0.14192426 -0.039962452 -0.10187806 -0.049707126 -0.043193225 0.11120649 -0.09488923
0.11689236 0.15198839 0.01132126 0.21963838 -0.012722281 -0.14980887 0.033685934 -0.19392774
0.12562874 0.077943824 0.0870315 -0.067514494 0.056088246 0.09911418 0.2211538 -0.10021891
0.22981852 -0.08540099 0.20327547 -0.13703178 0.1321211 0.16182257 0.1918491 0.022520496
0.22655232 -0.07441345 0.108890854 0.0425958 -0.1981279 -0.03986833 -0.2314546 -0.043201223
0.015390513 -0.13670394 -0.12738067 -0.16973592 -0.028962538 0.1804038 0.09555173 0.07878262
0.046218667 0.13831195 -0.046008702 0.09644341 -0.0980888 0.26415002 0.25711405 -0.16885513
0.06391386 0.18249789 -0.00714344 -0.19273987 0.07203208 -0.06265245 -0.042659197 0.18113905
00000000: ac09 95bd 175f ba3d 9574 483e f12b 3b3e
00000010: 1637 abbd 2f7d ac3c 7627 7abe c03d 853b
00000020: 2232 8fbd de69 233d 63b9 21bd c642 c43d
00000030: 195f 23bd ff76 febd e0c4 f2bd 304b 5a3e
00000040: f783 923e 82ca b5bd d110 50bd c472 8a3b
00000050: 9d9a 5dbe 48c0 a3bd f6a8 6cbe e6c8 3a3e
00000060: a9df 3f3e 6bd8 0bbe d366 b6bc 201b 1e3d
00000070: 7b0c 283e a344 e43d 9b78 b0be 82a8 a53d
00000080: a53a 8fbe c48d 383e 2630 56bc 932e bcbd
00000090: 708d 32be e697 153e b409 013e 7296 9d3d
000000a0: 5cc6 b93d c1ac 333d 5145 02be d5d4 703d
000000b0: cfd9 8f3d e9c3 a33d f244 6b3d cd9e 20be
000000c0: 0eae b43c 7aad 603e 147e a83d aa42 cd3c
000000d0: 92b1 7b3e 59ad 65be 9e47 04be d059 2e3e
000000e0: 5d05 463e 5b48 0a3e 0094 0ebd a22c 7e3d
000000f0: 3756 52be e81a 883e 54f7 cfbc b913 b93b
00000100: a9d4 bbbd 58d0 dabd 8ead 1a3e 78fb 133e
00000110: 9b8b 07be 7cef 4a3e 9e69 193e a012 52be
00000120: 6249 ed3d 403c 133e 4729 773e 2e7a cb3c
00000130: 0729 e6bd f46e 1cbe 7cb7 c83c c483 29be
00000140: e946 393e ff15 793e 5e1c 313c b3fd 363e
00000150: 368e 36be 078b 65be 1eb0 5f3e 2835 1d3d
00000160: c5d4 1ebe fdaa 973d deea 97be d058 203e
00000170: e5a8 25be dd81 573d dc69 33be 8ca9 79bd
00000180: 1239 943c 0529 893e e864 9abb 4c2f 8bbe
00000190: 8ab9 ed3d 0421 6abd 8909 84bd 79e3 fcbc
000001a0: ca1f 2c3c cc99 183c b125 423e 04de c1bd
000001b0: 3085 a63e 67a7 273e b63c 943d 9760 8c3e
000001c0: 5496 4e3e e46e fdbb a58c fbbe 727f 3e3e
000001d0: 1e38 76bd 32ad c7be 8e2e f93d d015 063d
000001e0: 9880 3d3e c169 473e 2d50 2d3e 8368 593e
000001f0: 9fcc 763d 8d45 c53d 89bc 0a3e d6c3 213e
00000200: 55fe b4bd 1278 92bd b775 f2bd 5de3 90bd
00000210: 4ddf 6cbd b6c0 923e dac1 cc3c 6809 fb3d
00000220: fccd 89bd 8cf1 27be c578 04bd 5ce1 1a3e
00000230: 8637 3abe 2f65 b53d bd83 86bd 06e3 91bb
00000240: f701 4f3e f8ad 9dbd 7608 a83d c2dc 4e3e
00000250: 170d 353e 43eb 6c3d e4d3 663e 5869 7fbe
00000260: dfe9 a9bc 1817 3e3e 4d6a fcbd dfc6 113d
00000270: 6bae 33be ef9c a3bb d157 d13b c347 0abc
00000280: 18b2 2d3e 30e5 99be cad1 c1bd 4888 c43d
00000290: 5f64 96be bfac 45bd a753 d73e eea2 f23d
000002a0: ad76 8d3d df60 1abd da6e 8b3d 3702 373e
000002b0: 6f46 d9bd 00b7 ccbc f894 4f3e 9800 3ebe
000002c0: 238b 543e 6b7c 133e 7cf9 2c3e 245e dd3d
000002d0: 4897 7bbe cb75 4d3d 4d8d 7b3e 2853 543e
000002e0: 6ee6 29be 3b0e 823d d879 46be 906e eb3d
000002f0: 997b 3c3d 3cca 1f3d 39cf 5e3d 9392 a83c
00000300: 87c4 ae3d 9854 113e abaf 23bd 72a5 d0bd
00000310: b399 4bbd 61eb 30bd 3ac0 e33d 4955 c2bd
00000320: 4365 ef3d d8a2 1b3e ce7c 393c e2e8 603e
00000330: 1d71 50bc 7f67 19be 43fa 093d fe94 46be
00000340: d2a4 003e 03a1 9f3d 923d b23d 0a45 8abd
00000350: cabc 653d 60fc ca3d 2476 623e 923f cdbd
00000360: 8c55 6b3e b7e6 aebd 7227 503e 0f52 0cbe
00000370: c14a 073e d1b4 253e 1774 443e e77c b83c
00000380: 55fd 673e 1466 98bd 2b02 df3d ef78 2e3d
00000390: 0ae2 4abe f94c 23bd 6f02 6dbe c4f3 30bd
000003a0: 7e28 7c3c 1efc 0bbe 1470 02be 41cf 2dbe
000003b0: d842 edbc c6bb 383e a0b0 c33d c858 a13d
000003c0: c94f 3d3d a6a1 0d3e 9f73 3cbd 1f84 c53d
000003d0: c8e2 c8bd ac3e 873e 74a4 833e 5ce8 2cbe
000003e0: 45e5 823d bae0 3a3e 8513 eabb 9a5d 45be
000003f0: 8e85 933d ed4f 80bd 69bb 2ebd 847c 393e

fc3.bias f4 [10]
-0.22384647 -1.0327448 -0.35816273 0.83488274 0.8398871 0.11652427 0.17757937 -0.30430335
0.30178615 -0.37547362
00000000: 0238 65be fb30 84bf 1b61 b7be e0ba 553f
00000010: d702 573f 47a4 ee3d 5ed7 353e a6cd 9bbe
00000020: b783 9a3e 143e c0be
